04 - Pygame Jet Game with SR/250224_best_model.pth (torch, 105754 bytes, 23 tensors)

feature_extraction.0.weight f4 [56, 3, 5, 5]
00000000: 9aaa 693d aa9e 8a3f 6922 65be a832 073f
00000010: 85e2 043f d2f0 343f 8813 483f 7db6 053f
00000020: 68ac f2bf 0907 8dbf cd8b c33e 9543 d7be
00000030: ab8f 793f 23b9 91be 5edf 083f 9a08 263f
00000040: 29b4 3ebe 767b 08bd ccf3 2b3f cd49 0e3f
00000050: 0441 463f 3a6d 0e3f f7f9 20bf f640 60bf
00000060: d0ad 7ebf 592d af3e eda0 f33e 508b 01be
00000070: 0e4e 063f f900 d93e c5cb ff3c 3c82 afbd
00000080: 23f5 943e d0d5 26bf d15e 81be 6b72 efbe
00000090: 8270 03bf ed49 903e d606 1ebf 4c9b 88be
000000a0: 0c1e 953d ac37 36be 9634 a2bf 484b 03bf
000000b0: 1d6d 00bf 42a2 3e3e 606d c73e d797 fcbe
000000c0: 06cc 433d 577b fbbe 1e6b 04be 5da0 b63e
000000d0: 31d9 dfbd ff25 bbbd 09fe a63e ac35 28bf
000000e0: cb34 67bf 681a bbbf 247a 483c 7d7f 453f
000000f0: 328b 6bbf 40bb 6fbe ff9e ec3e b057 83be
00000100: 1c3b f6be 8ae8 c0be 8b12 9abf 78bf 41bf
00000110: 777c 293e 7dd2 20bf 8234 c73e adfd 343f
00000120: 3052 14bf 831b 5e3f 7ca6 28bf d4ba 1c3e
00000130: 6729 a6be 9e19 61be 349c 413e 8e94 173e
00000140: ef6c 4d3e 75dd 98be 79de 033d e161 0e3e
00000150: dc45 5b3c d240 fcbd d269 ee3d f4e1 47be
00000160: 0470 75be 2ba4 25be 1297 4bbe b019 bcbe
00000170: 4e05 e9be 9826 15be 68a9 093e d2a2 323d
00000180: 8ace 1dbe 8acb 3bbe 81e1 05be 0b96 89be
00000190: 3580 3a3d 3911 cd3d 637a 1b3f 7cac 0cbe
000001a0: 6a52 56bc 7207 833c 65c9 9b3e 4302 0c3d
000001b0: dca3 5e3e 8d02 143d e5ea 23bd b656 113f
000001c0: f7b0 853e 838f a73c ef60 74be ce6c cdbc
000001d0: bd8d 3ebe d124 c73e 48bb cdbd a33d a13d
000001e0: 4953 2c3e 7c91 5a3e 5d5d 4c3e edb0 233e
000001f0: 7cdc 523e d832 a43d efe1 00be 83cd 4a3d
00000200: 8b3d 08ba 3f69 69bc d56a 9fbd bb61 6b3e
00000210: 2686 45bd 4560 b83e cf3c 96bd 4db1 c13c
00000220: 4442 e03e e7d8 b63e 6a82 503e 1902 08be
00000230: 6a26 1ebd 390e efbc 1750 6c3e 0b83 2f3e
00000240: f273 d63d 2ba2 35bc d04a b7bc 0b8d 2bbc
00000250: 49a5 27bd 82eb 4abd bb40 c1bc 5149 003f
00000260: 560d 2d3f f811 803f 276c 153f b909 e63c
00000270: c6fe a23e 65f6 9ebf 3950 1b3e 39ab c13c
00000280: d6ee 2f3f 91bc 4dbf 6cd6 863f f687 18bf
00000290: 2af2 4bbf 068e 3a3f 0bc7 76be 1cfb 93bd
000002a0: 2bbd c4be 0854 b93f 0de2 01bf c23b a9be
000002b0: b088 0fbe a0c5 62be 31c0 cabe 29da 933e
000002c0: 6244 7f3f 6fcd e73c 7261 383e 600c 0cc0
000002d0: e304 f13d 5184 91be 030e bebe 43c1 4dbd
000002e0: 56f9 473f 4658 0bbf d24f 1bbd cd8d 893e
000002f0: 334f 453e b681 dfbe 6266 b4be c061 b4be
00000300: 6b2b 56bf 55b8 a7be a03f 5e3c b309 4a3d
00000310: 3f4d d7bd a5dc b73e 1edd a63e 87a1 273f
00000320: a7a9 723e fe37 c33f 5302 a1bf 73e9 68be
00000330: 940d 13bf 4f7e 493f c36f 90bf 9c91 a9bf
00000340: acb4 353f 7838 133f 1320 8abf 87b4 a83d
00000350: b023 e4be b0d5 6ebe aac4 023d 3aca 28be
00000360: 842e 1c3f 1801 aebe e333 26bb 17ca 1a3e
00000370: 1377 a83e c173 f43e 6361 19be e6b1 9ebe
00000380: 9854 c8be 4acb 1e3e 2964 febe b5d5 2f3e
00000390: fc01 b53d 9f21 123d 30b3 e9bd 5c56 45bf
000003a0: 31ae 033f 2732 b2bd 1e82 98bd 2d0c 5e3e
000003b0: 7a1c 69bf 0ab9 0fbc 3fb9 c63e 402e 1d3e
000003c0: 172d fa3e 659c 4c3d b9ea 4a3d 528a a23e
000003d0: e93e debb 77e2 a43c ae18 1ebe b14d 003d
000003e0: bb13 6fbd 740c a9bb 4585 85bc 148c b1be
000003f0: 336a 59be e555 d1bc 1c28 48be 9a3e b2bd
0.057047464 1.082967 -0.22376408 0.5281167 0.5190814 0.7067996 0.781548 0.5223158
-1.8958864 -1.1017772 0.38192597 -0.42043748 0.97484845 -0.2846156 0.5346583 0.64856875
-0.18623413 -0.033320867 0.6716888 0.5558136 0.77442956 0.55635417 -0.62881416 -0.8759912
-0.99483967 0.34214285 0.47583714 -0.126508 0.5246285 0.42383555 0.031225095 -0.08569762
0.29093274 -0.6517 -0.25267652 -0.4676698 -0.5134355 0.281814 -0.6172918 -0.26680982
0.072811216 -0.17794675 -1.2672298 -0.51286745 -0.50166494 0.18616584 0.38950634 -0.49334595
0.047801994 -0.49117538 -0.12931487 0.35669222 -0.10930098 -0.091381066 0.32615688 -0.65706897
-0.9031493 -1.4617434 0.012236152 0.77147657 -0.9200927 -0.23411274 0.46215054 -0.25652838
-0.48091972 -0.37677413 -1.2036909 -0.75682783 0.16551386 -0.6282118 0.38907248 0.7069958
-0.5793791 0.8676073 -0.65879035 0.15305644 -0.32453462 -0.21982428 0.18907243 0.14802763
0.20061086 -0.29856458 0.03219459 0.13904525 0.013383355 -0.12317051 0.116412774 -0.19519788
-0.23968512 -0.16175906 -0.19881848 -0.36738348 -0.4551186 -0.14565504 0.1344353 0.04361231
-0.1541082 -0.18339363 -0.13074304 -0.26872286 0.045532424 0.100130506 0.6073362 -0.13737673
-0.0130811725 0.015994761 0.3042709 0.034181844 0.21742195 0.036135245 -0.040018935 0.56772935
0.26111576 0.020454174 -0.23865102 -0.025076296 -0.18608756 0.38895276 -0.10045487 0.078730844
0.16828646 0.2134456 0.1995749 0.1598546 0.2059192 0.0801751 -0.12586187 0.049512397
-0.0005197159 -0.014246284 -0.077840485 0.229865 -0.048223637 0.36010948 -0.07335817 0.023644114
0.43800557 0.35712358 0.20362249 -0.1328205 -0.038610853 -0.029181587 0.23077427 0.17139833
0.104713336 -0.011086027 -0.02237454 -0.010470639 -0.040929113 -0.049541004 -0.023590436 0.5011187
0.67598474 1.0005484 0.5836815 0.028080808 0.31835002 -1.2418944 0.15167321 0.023641216
0.6872381 -0.80365855 1.0534186 -0.5958246 -0.7966639 0.7287296 -0.24099366 -0.0722563
-0.38425574 1.4478769 -0.5073555 -0.33053404 -0.14016986 -0.221457 -0.39599755 0.2887738
0.9971372 0.0282962 0.18005922 -2.1882553 0.1176851 -0.28421262 -0.37120065 -0.050233137
0.7811483 -0.5443157 -0.03791792 0.26865998 0.19268493 -0.4365365 -0.35234362 -0.35230827
-0.8366 -0.32757822 0.013564974 0.049325656 -0.105127804 0.35910526 0.32590574 0.65480846
0.2369753 1.5251462 -1.2578834 -0.22745304 -0.57442594 0.78708357 -1.1284107 -1.3247561
0.7097881 0.5750804 -1.0791038 0.08237558 -0.44558477 -0.23323703 0.031925835 -0.16483393
0.6100848 -0.3398521 -0.0025360517 0.15116154 0.32903346 0.47744563 -0.14978556 -0.309951
-0.3912704 0.15507236 -0.4968579 0.17171367 0.08838269 0.035676595 -0.114111304 -0.770849
0.5143767 -0.08700972 -0.07446693 0.21684332 -0.91059077 -0.008772144 0.38813207 0.15349674
0.48862526 0.049953837 0.049540255 0.31746155 -0.006782402 0.020127518 -0.15439102 0.031324092
-0.058368426 -0.005158955 -0.0162989 -0.34677184 -0.21231918 -0.025553653 -0.1954655 -0.087033466

feature_extraction.0.bias f4 [56]
00000000: eb3b d5be 7275 bcbe d576 7fbf 09c1 413f
00000010: 654a 37bf 7ba6 20bc d8df 633e 05ab cd3e
00000020: 919a d63e cf42 08bf 9129 5ebf 5576 2f3f
00000030: 8e8e 033f f795 cd3e 8a1d 8d3e 9fe9 aebd
00000040: 45e3 363f 3c83 063f 3f87 cf3b b8d9 cfbf
00000050: c909 91be ada8 ad3e 68bf 653e 3b98 1dbf
00000060: 6668 c93c c08f e53d a577 de3e 23e3 073f
00000070: 7769 90be f9c2 af3e be10 163f d52a 5f3f
00000080: c793 a9be 46ab f1be 1d63 e73b 4df0 91bf
00000090: 858c cabf 9da3 693e d34e 393f 08f2 0f3e
000000a0: 290e 6abf c138 95bf f937 653e 8fe5 3c3d
000000b0: d5f3 2fbf 27c1 4c3f 7b0a bd3f 1dd8 5d3f
000000c0: f152 eebf 2a15 6f3e 93cb 823d 74bd fa3e
000000d0: 7e1a 3dbf 76af 19bf 4177 43bf 92ee 23bf
-0.41647276 -0.36808354 -0.997907 0.75685173 -0.7159789 -0.009805317 0.22253358 0.4016954
0.419148 -0.5322694 -0.86782175 0.68539935 0.51389396 0.40153477 0.275616 -0.085406534
0.71440536 0.52544 0.0063332613 -1.6238317 -0.28327778 0.33917752 0.22436297 -0.6156041
0.024585914 0.11209059 0.43450657 0.5308096 -0.28205463 0.3432844 0.58619297 0.8717473
-0.33120558 -0.47200984 0.007061376 -1.1401459 -1.5824133 0.2281632 0.723859 0.14057171
-0.91427857 -1.1657945 0.22384633 0.04611736 -0.68731433 0.7998223 1.4768823 0.8665789
-1.8619062 0.23347917 0.06386485 0.48972666 -0.7386855 -0.6003336 -0.7635384 -0.64035904

feature_extraction.1.weight f4 [56]
00000000: 6e25 193b 2686 cf3f f2a9 0abc ebbc b9bd
00000010: b760 2e3e f3bb 60bb cb6f 4cbf be05 5a3e
00000020: 400d 59bf 0514 003c e2dd 9abb 3b9a 75bf
00000030: dbf1 debb c693 f0be 6b91 80c0 f8c9 87bf
00000040: fc87 9f3e 3d5a 16be 18c4 473c 225f 953b
00000050: 6a07 6d3d 5242 aebc 34e5 6bbe 5562 343c
00000060: 6a85 d63c c095 6f3f 6ea4 4d40 773a fd3f
00000070: ab15 203d 7007 eb3d 5ef4 1bc0 bdbf 1c40
00000080: 74aa 143d 15e0 e83d 32e7 6fbe 7873 3140
00000090: 2c96 fe3b 4523 60bc f390 393e 07e5 6c3e
000000a0: effb 01bf ce18 f0ba bd3c d13e a4bb 8bbc
000000b0: 377c e43b 3d58 173d 43c0 66c0 ce89 5abf
000000c0: 0e1f 0ebd a350 7ebf c955 763c 7f6b 153e
000000d0: 8115 de3c 2813 71bf 00c4 29be 1d67 023e
0.0023368257 1.6212814 -0.00846337 -0.09069236 0.17029081 -0.0034291714 -0.7985808 0.21291253
-0.8478584 0.007817273 -0.0047261575 -0.9593846 -0.0068037338 -0.46987742 -4.017751 -1.0608511
0.31158435 -0.1468286 0.0121927485 0.00455846 0.0578684 -0.021271858 -0.23036653 0.011009772
0.026186664 0.93587875 3.213161 1.9783467 0.039083164 0.11476028 -2.43679 2.4492028
0.03629537 0.11370865 -0.23428038 2.7726727 0.0077693667 -0.013680284 0.181217 0.23134242
-0.50775045 -0.0018317939 0.40866652 -0.017057247 0.0069728154 0.036949385 -3.6054847 -0.85366523
-0.034697585 -0.9934179 0.015035101 0.14591788 0.027109863 -0.94169855 -0.16578674 0.12734647

shrinking.0.weight f4 [12, 56, 1, 1]
00000000: 93fb 91bf 5326 e43e 8c7e 2bbf f3a4 b73e
00000010: 8799 013f c057 423c 88ba 6bbe ecd1 f7bd
00000020: 25ed 8ebe 7668 59be 5122 ba3c b55c 0b3e
00000030: a82d d0be 4a74 90be ef2f 9b3e 51b4 73be
00000040: 8c4a 193e 2d4b c3be a5be 123e 5adb 653d
00000050: 18fb b23e 2ddf 68bf f1de 79be 17a2 ee3e
00000060: 81f0 d83e 41ae b73e d1f0 9c3d be95 b1be
00000070: cf6b 32bf c6a7 f0be 4ce5 c0be ab9f 9b3d
00000080: 8370 7fbf eb6a 05be 7810 f63d 39f0 723e
00000090: 6228 11be dcf1 8b3e 60ee 333f 7583 a83e
000000a0: 3f09 723c e342 e0be ef5b 98bd 79ef adbe
000000b0: 28cb a6be 2848 aabe a09b 233c 2511 7f3d
000000c0: 93bb e4be ed62 5e3e c58b c1bd 50ba 02bf
000000d0: 5c29 f13e a4b4 6cbd 7c3c 41bd f043 eebe
000000e0: 294b 153e ac04 b43c 2055 023e fdbd 24bf
000000f0: 85b7 1e3d 33d3 6f3e b0da a8bd ae93 26be
00000100: 941b d5bd 4fdf 653e 9858 22be 780e 05be
00000110: 578d b73d b06a ec3d d370 273e 29f5 c0be
00000120: 7a54 6dbe 8777 68be 88a0 5ebc a062 b9be
00000130: 6fde 26bd 240d c5be bc4f 8c3c 1aa2 db3d
00000140: c34c bfbc 26c3 083e 76e1 f93d 303d 133d
00000150: 63c6 a2bc dae8 10bf 0fdd 2a3d bc17 4cbe
00000160: 34e3 07be 43e4 8e3e 6e36 65bb 86cc 23be
00000170: 0065 933e 01ec 4d3d d865 4bbf 6dda e83e
00000180: 01ba 20be b489 f2be d6eb 21be 47a5 9cbd
00000190: e715 293e b1b6 6dbd ee92 c13c b165 e8bd
000001a0: 21bf e13d dcaf 733c cd61 7a3d edcb 483f
000001b0: 9afa 98be 64b5 943d aa78 4dbd ca7f 0b3d
000001c0: 9110 b43e d27e ba3e 7447 bcbd a36c 663e
000001d0: 890f 663f 5757 773d 8196 e4be c69b e1bd
000001e0: bcc8 61be d500 0abe eb81 213f b44d f63e
000001f0: ffa9 a63e c25e 1f3d 735d 9f3e f11f 203e
00000200: 2730 613e 3898 b73e 32ca ce3e 3cd6 013e
00000210: 0dcd abbe af96 a23d e773 373d 6bf7 05bd
00000220: 35a0 03be 9b1d 86be d015 373e 35c7 4a3e
00000230: c42c 7cbe c7e9 223f 6bf3 5fbd 23b0 0a3d
00000240: 659e ecbe 7493 3dbe 7cb3 32bf 1d7f 253e
00000250: abe6 5abe 14b7 bfbe 00a4 0cbf 1452 4abd
00000260: 47f5 c13e 3689 3e3f cf50 713e d58a 0cbf
00000270: 5512 b8bd d615 803e 2bda 12be 26a0 76be
00000280: 9581 a63e 4567 75bd 8662 6d3c f496 103e
00000290: 92a3 24bf 9f81 0a3d 10a2 f63e c94b af3e
000002a0: 058b 6e3e dc97 213e b0dd 6d3d c7e2 0b3d
000002b0: 1144 2abf 8013 443e 6e2d 2f3e 0f80 6a3f
000002c0: 440c 1cbe 4380 943e f9a0 853a 7f61 8bbe
000002d0: 1f7f 7e3e 6119 d23d f8e0 f43b d031 30be
000002e0: 00a0 c8be 684e 4c3c 6621 23bf 6278 25be
000002f0: 1b7c 43bd f8d2 a8be f0d2 293d 12e7 fdbd
00000300: 0192 60bd a431 37bd e228 b2bd f92c 88bd
00000310: 7bee 1ebe 72fe 443e ffdb 0a3c 7751 e3bc
00000320: 0239 5f3e 86c4 02be 64db dc3e ddcb 923c
00000330: 3bca c63c 473a 7fbe 0117 e4bd 7135 8ebe
00000340: 2755 b9bd 9846 d0bb d6f2 60be 0fc6 183e
00000350: 76f0 263e c2e5 493e 79f8 b23d 64b3 0d3e
00000360: 9628 4fbe e842 df3c 1407 bdbc b6b6 f2be
00000370: ce89 b3be 49bf 80bc c772 20be 85fe 3a3c
00000380: 6f68 053e d2dc 673e c7a7 eb39 ce19 07bf
00000390: 8516 813e dfb2 f7bd f5a8 7a3d cd7d 583d
000003a0: bc94 503e 07a1 0c3f 50ab bcbc 78a3 94be
000003b0: f574 9b3e e52d 9fbe 1330 20bd 540a a93e
000003c0: e19c febe c853 3abe 27ae fabd 908c c9be
000003d0: 3676 a03d efe6 b63d d658 ddbe 6286 453f
000003e0: 2552 cc3e a2f3 65bf cd14 30be ff32 a33b
000003f0: 54f3 71bf b203 10bd fada 113e baaa b73d
-1.1404899 0.4456049 -0.6698997 0.35868034 0.5062489 0.011861742 -0.23020375 -0.12100586
-0.27915302 -0.21231255 0.022721441 0.13609584 -0.40659833 -0.28213722 0.30310008 -0.23799254
0.14969844 -0.38143292 0.14330538 0.056117393 0.34957194 -0.9096554 -0.24401452 0.4660804
0.4237099 0.35875133 0.076631196 -0.34684557 -0.6969575 -0.47003 -0.3767494 0.075988136
-0.99781054 -0.13029067 0.1201486 0.2372445 -0.14175561 0.27332962 0.70285606 0.32912794
0.014772712 -0.4380103 -0.0743941 -0.33971766 -0.3257687 -0.33258176 0.009985834 0.06227221
-0.44674358 0.21717425 -0.09450487 -0.5106554 0.47101867 -0.05778946 -0.047176823 -0.46536207
0.14579453 0.021974884 0.12727785 -0.643524 0.038749237 0.2342041 -0.08244836 -0.16267273
-0.10405651 0.22448467 -0.15854108 -0.129938 0.08962505 0.115437865 0.16351633 -0.37687042
-0.23176757 -0.22701846 -0.013588078 -0.36208057 -0.040739473 -0.38486588 0.017127864 0.10724278
-0.023352033 0.13355693 0.122012064 0.035947025 -0.019869989 -0.56605303 0.041714724 -0.19930929
-0.13270265 0.27908525 -0.003497507 -0.15995988 0.28787994 0.0502739 -0.79452276 0.45479146
-0.15695955 -0.47370684 -0.1581262 -0.07648712 0.16512261 -0.058035556 0.023629632 -0.11347521
0.11022783 0.014873471 0.061128426 0.78436166 -0.29878694 0.0726116 -0.050163902 0.034057416
0.3516889 0.3642488 -0.09193316 0.22502379 0.89867455 0.06038603 -0.44646075 -0.110160396
-0.2204923 -0.1347688 0.63088864 0.48106158 0.32551572 0.038908727 0.31125984 0.15637185
0.21991025 0.3585832 0.40388638 0.1267938 -0.3355488 0.07938897 0.044788267 -0.03270666
-0.12854083 -0.26194462 0.17879415 0.19802554 -0.24626452 0.63637966 -0.0546755 0.033859383
-0.46214595 -0.1851328 -0.6980512 0.16161771 -0.21377055 -0.37444365 -0.54937744 -0.049394682
0.37882444 0.7442812 0.23565982 -0.5489934 -0.089878716 0.2501666 -0.14341037 -0.2408453
0.32520738 -0.05991294 0.014488822 0.14120084 -0.6431209 0.033815023 0.4817052 0.34237507
0.23295219 0.15780586 0.058072746 0.03415182 -0.6651011 0.19148064 0.17107174 0.9160165
-0.15239054 0.29004106 0.0010195068 -0.2722282 0.2485318 0.10258747 0.0074731074 -0.17206502
-0.3918457 0.012469865 -0.63722837 -0.16159204 -0.047725778 -0.32973456 0.04146093 -0.12397589
-0.05482674 -0.044725075 -0.08699204 -0.06649203 -0.1552066 0.19237688 0.008475303 -0.027748806
0.2179909 -0.1277028 0.43136132 0.017919475 0.024266353 -0.24924575 -0.111372 -0.27775148
-0.09049445 -0.0063560717 -0.21967635 0.14919303 0.16302666 0.19716552 0.08738799 0.13837963
-0.20230326 0.027253583 -0.023074664 -0.47405022 -0.35066074 -0.015716212 -0.15668784 0.011413221
0.1302812 0.2264283 0.00044947697 -0.5277375 0.25212494 -0.12094664 0.061196286 0.052854348
0.20369238 0.5493321 -0.023030907 -0.29030967 0.3036267 -0.31089702 -0.039108347 0.33015692
-0.49729064 -0.18196023 -0.12240248 -0.39365053 0.07835047 0.08930766 -0.4323184 0.77158177
0.3990642 -0.8982488 -0.17195435 0.0049804444 -0.94511914 -0.035159774 0.14243689 0.089681104

shrinking.0.bias f4 [12]
00000000: 3904 02bf 0824 913e d308 ecbe 8032 26be
00000010: 3914 ccbc b76e a7bd d200 633e 8fc8 d43e
00000020: 1bf3 5fbe d5ad 003f 745f 82be 6795 98be
-0.50787693 0.28347802 -0.46100482 -0.16230202 -0.024911987 -0.08175414 0.22168282 0.41559264
-0.21870081 0.50265247 -0.2546345 -0.29801485

shrinking.1.weight f4 [12]
00000000: bd2f 0d3e 2dfb 973d 7fe9 243e 9bb2 a83e
00000010: 9210 353e fff7 da3d 5bb4 cf3e 1d43 363e
00000020: 10b7 973f 8866 2e3e fd17 463f f721 733e
0.13787742 0.07420955 0.16104697 0.32948765 0.17682102 0.10691833 0.40567288 0.17799039
1.1852741 0.170313 0.77380353 0.23743425

mapping.0.weight f4 [12, 12, 3, 3]
00000000: 7b0b 16bf aa58 45bf 3c26 e43e 2b9d 623f
00000010: b5a8 1e3f 56f9 f13e 53a0 1cbe c2de 54bf
00000020: cba7 47bd 99bf 293f c91c a83d 7593 e3be
00000030: 2079 903e 3fd3 ccbf 714a 4e3e 5605 303e
00000040: 75d9 783e b695 bd3e 8792 b83e e810 f13e
00000050: 4f23 1f3e 1742 ee3e f32c 71bf 4a3e 963d
00000060: 38b6 5cbe 7615 9dbe e8ff 4bbe 915f 3ebe
00000070: fa95 173f 9f01 b63e 2427 aebe 443c 883e
00000080: b9ec 41be edf4 253f 4948 30bf 800b 63be
00000090: 14d2 1d3d 0437 033f 679b b33d 7532 a93e
000000a0: 82b9 cabd 68a1 06bf e996 3e3f cd81 c13e
000000b0: 314f 8bbc 9f01 f8bd 81e1 673f d0a6 683d
000000c0: 51b6 37bf df12 a2be 250d 1b3e c6a0 0c3f
000000d0: 4a84 01bf cfcc 633f 5e40 12bf d9a5 13bf
000000e0: 8e53 b1be 611b ce3d ab5e b93e 9525 76bc
000000f0: 97a4 1ebf 73ea 003f 5cba 9fbd ab9b 1d3f
00000100: b4f4 483f 00c4 21bd 66fe 003e 0a69 67bf
00000110: af26 29bf 444a cbbc d9a5 3c3d 17ad 163f
00000120: d1c4 69be 6c0d 63be 4d65 af3d a96a ae3e
00000130: d750 623e 7fc1 c6be eade 863e bdad 3c3e
00000140: acee ad3b 4a89 f83e 4c24 bfbe 7bc0 d63d
00000150: badc edbe b4f0 383f f830 1cbf 49f4 15bd
00000160: d01c 3ebe b618 183e 0939 15be 43ba b1be
00000170: 98bb ddbd 71fb 4fbe 0494 1d3f 24e8 b8be
00000180: 31e0 c03e e155 96be 46d7 2e3e e6a8 273f
00000190: 83bf babe 1e9f 593f 8c34 223f 0799 043f
000001a0: 9ae8 4cbf 84e6 cfbe e15f b4be b379 e13e
000001b0: dd3a b03e 2f98 eabe a177 b53e f9e4 ec3e
000001c0: 90c3 d5be bd86 d53e 15b3 05be a005 f9be
000001d0: 613f 8b3e 521d 923e cb2c 20be 2b26 b8be
000001e0: 0fa0 7fbc 7c1c 87be d7a1 9e3b 1d86 7f3c
000001f0: c958 d93d 0691 c43d 936d 34bc f5a8 2a3d
00000200: 274e 783e 34eb dd3d 6129 6a3d 0f3b a83d
00000210: 610b c63c 3e2e 87be 9224 e43d 8bd0 8c3a
00000220: f375 83bb 2322 2a3e 8643 f2bd 7798 223e
00000230: ac29 7e3e f4a6 d43d 5061 76be 6eb5 26be
00000240: b8e9 99bc 22a4 23be 8c68 023d 84d6 2bbe
00000250: bcd5 a03e 226c fe3e e84d 8fbd 0e70 0cbf
00000260: f5b3 6f3f 4b1f d53d 7d2c 90be e793 053f
00000270: ef83 10be bf24 32be 47f5 1e3f 52aa cbbd
00000280: 1280 53be 026c 43bf 9c4c e5bc 149b a63e
00000290: 699f 833e c4af 253d 28c7 8f3e 9806 abbe
000002a0: ca41 75bd 54ef fb3d d229 523c 702d a53d
000002b0: 3530 9fbe 6c17 28be 9330 e5be 1752 3dbe
000002c0: 2a39 c23e d3b7 963e f5cf 773f c20e 97bd
000002d0: 03bc 20be eefd 36bd cadd 823d f704 893e
000002e0: 0cc5 dabd 2ef6 cd3d c2bc 1ebe a2ab da3d
000002f0: 1102 973d 936a 503d 6470 033e fb5f e13e
00000300: a4bf 9e3e b947 50bf c238 883d 9ea4 53bd
00000310: 499a 18be fb68 b33d 4c39 c1bc 9cd5 65be
00000320: 1e12 0cbe 6c89 a3bd 32f2 c13e fcac be3d
00000330: 8f33 c43d eebe 3f3a 6c17 b73d a427 75be
00000340: 89c4 fb3e 9c72 b5be fc35 123f 77d9 1d3d
00000350: 6b9f d63e 2642 db3d 89c2 b13d d923 9abe
00000360: e2b1 fcbe f699 263f 315f 0a3f 561f 33be
00000370: a579 893e aeed a4be ed7f 4a3e 0765 9bbe
00000380: 2422 03bf 2418 c23e bad7 ecbe 1f68 d43e
00000390: ba7d a5be cf78 c93e 5842 38bf 2639 833e
000003a0: 1e99 d63c c223 b7bd 39ab 9dbe 8266 82be
000003b0: a4c2 50bd 2faa 513f 920e 2ebf a221 363f
000003c0: c98b f6bd 4f50 04bf cfe1 cdbd 3994 eabd
000003d0: d642 373e 989f 693c 0bcc 2ebe 9c7d 773e
000003e0: 24f3 283e 55f3 843e 4c1e 08bf 0c56 2c3d
000003f0: be3f 0abd 2887 0f3f a5b1 1a3e 57cd 4fbe
-0.5861127 -0.77088416 0.4456042 0.8852107 0.61976177 0.4726054 -0.15295534 -0.831524
-0.048744004 0.6630798 0.08208615 -0.44448438 0.2821741 -1.6001967 0.20145585 0.17189535
0.24301703 0.37028283 0.36049291 0.4708321 0.15540813 0.46534798 -0.9420921 0.073360994
-0.21553886 -0.30680436 -0.19921839 -0.18591143 0.5921322 0.35548112 -0.34014237 0.2660848
-0.18937959 0.6482685 -0.688603 -0.22172356 0.038530424 0.5125582 0.08769875 0.33046308
-0.09898664 -0.52590036 0.7444902 0.37794343 -0.017005535 -0.12109684 0.90578467 0.05679971
-0.7176257 -0.31655023 0.15141733 0.5493282 -0.5059248 0.8898439 -0.57129467 -0.5767494
-0.3463406 0.10063816 0.36205038 -0.015023609 -0.61969894 0.5035774 -0.07799217 0.61565655
0.7849839 -0.03949356 0.12597045 -0.9039465 -0.6607465 -0.024815686 0.046056602 0.58857864
-0.22828986 -0.22173089 0.085642435 0.3406575 0.2210115 -0.388195 0.26341945 0.18425651
0.005307993 0.48542243 -0.3733238 0.104859315 -0.46457464 0.72242284 -0.6101222 -0.03660992
-0.18565679 0.14853176 -0.14572538 -0.3471242 -0.10826796 -0.20310761 0.6155398 -0.3611461
0.37671044 -0.29362395 0.17074308 0.65492094 -0.36474237 0.8500842 0.6336143 0.51796
-0.8004242 -0.40605557 -0.352294 0.44038162 0.3441991 -0.45819232 0.35442832 0.46268442
-0.41750765 0.4170436 -0.13056596 -0.48637104 0.27196792 0.28537995 -0.15642087 -0.3596662
-0.015602126 -0.2638892 0.00484107 0.01559594 0.106126375 0.095979735 -0.011012453 0.041665036
0.24248563 0.10835877 0.05716837 0.082143895 0.024175348 -0.26402467 0.11139788 0.0010743303
-0.0040118634 0.16614585 -0.11829285 0.15878473 0.24820584 0.10383406 -0.2406056 -0.16280147
-0.018788204 -0.1598058 0.031837985 -0.1678105 0.31413066 0.49691874 -0.06997281 -0.5485848
0.9363397 0.10406359 -0.28158942 0.52178806 -0.14112829 -0.1739683 0.62093014 -0.099445954
-0.20654324 -0.7633668 -0.027990632 0.3254019 0.25707558 0.040450826 0.28081632 -0.33403468
-0.059877194 0.123015076 0.012827354 0.08065307 -0.31091467 -0.16415185 -0.44763622 -0.18488346
0.37934238 0.29437122 0.9680169 -0.07375862 -0.15696721 -0.04467576 0.06389959 0.267616
-0.10682115 0.10056721 -0.15501693 0.106772676 0.07373441 0.050882887 0.12835842 0.4401854
0.31005585 -0.8135944 0.06651451 -0.051670663 -0.14902605 0.08760258 -0.023586892 -0.22444767
-0.13678786 -0.079851955 0.37880093 0.09310338 0.095801465 0.00073145225 0.08940014 -0.23940903
0.49173382 -0.35439003 0.57113624 0.03853747 0.419185 0.10705976 0.08679683 -0.30105475
-0.49354464 0.65078676 0.540515 -0.17492422 0.2685062 -0.32212585 0.19775362 -0.30350515
-0.5122397 0.37909043 -0.46258336 0.41485688 -0.32322484 0.39349982 -0.7197623 0.25629538
0.026196059 -0.08942367 -0.30794695 -0.25468832 -0.050966874 0.81900305 -0.6799098 0.7114507
-0.12038381 -0.5168504 -0.10052835 -0.114540525 0.1789659 0.0142592415 -0.17070024 0.2416901
0.16499001 0.25966898 -0.5317123 0.04207425 -0.033752196 0.5606561 0.15106829 -0.20293175

mapping.0.bias f4 [12]
00000000: 6890 6fbe e465 2cbe 3c67 793e 7869 f93d
00000010: bbbf 9e3e 0120 adbd 86b5 51be c135 093e
00000020: a2c4 d7be 8e5f 22bf 6896 e53d 8ee7 a33d
-0.2339493 -0.16835743 0.24355787 0.1217832 0.31005654 -0.0845337 -0.20479402 0.13399412
-0.42142206 -0.63427055 0.11210328 0.0800315

mapping.1.weight f4 [12]
00000000: d67f 123e 66a9 833e 2a12 9b3d 693a 8e3e
00000010: 6f0b afbe 63a2 8a3d 9d7a f63e 1253 5a3e
00000020: 4438 7f3e 6113 823e f088 263e 3599 92be
0.14306578 0.25715178 0.07571824 0.27778938 -0.3418841 0.06769254 0.48140422 0.21320751
0.24923807 0.2540541 0.16263175 -0.28632513

mapping.2.weight f4 [12, 12, 3, 3]
00000000: 6dff 0b3e 7ad5 39bd 0dc0 f03a 20bb 92bd
00000010: 5f6f 413e 172c 70be 6753 61bd e6b9 3e3e
00000020: e212 5e3e 3ed4 68be d0fd 5bbe 63bf 7e3d
00000030: 6de5 263f f9a2 aa3e d058 48bc 3f27 6bbe
00000040: 0783 3bbe 33e8 81bd 0c21 c6bd bd25 e33d
00000050: 0408 973d dfb7 873e 761d 04bd 9642 82be
00000060: ec26 2fbd 5d42 54bd 1eb7 b5bd 3705 663c
00000070: 6ff2 223e 8aaf 953e 311b 3ebe ccf7 f6bd
00000080: cc27 b9be 258a e3bc 62d2 7d3e f7c2 bc3d
00000090: 2da2 c33d 02ae c6bd 2cc9 6bbd 7524 cc3d
000000a0: 3482 89be 13e3 5a3d 2cb0 89bd b904 2abe
000000b0: d016 303d d8c4 3fbe e3fe 39bd 289c 8fbe
000000c0: 54d9 a0be 1813 7bbe 7c40 02bd ea0a 24bd
000000d0: a3df 493b 4768 00be 89d5 69bd 4db5 97bc
000000e0: 3ad8 a63c 0d8b 5d3c 461c 573e 8157 a63d
000000f0: 9c58 46bc 0475 d43d f72f 07bd 9c08 fa3a
00000100: 0eeb 07be f8c7 453e 5c6c cabe 92ec 44bf
00000110: 88e0 c7bd 65a6 da3d 410f 3bbe 8751 fd3d
00000120: 61f1 6bbc 219f 133e c600 bf3d dcd0 563d
00000130: 9035 25bf 5b32 bc3c 3ccc 883d 8200 4dbe
00000140: 766b e63d e0c4 6c3e 5591 b2bd 04c0 c43d
00000150: cfe4 d83e 3bfc 933e dfb3 73be 2e5e 643e
00000160: 1999 f0bd 5665 79bd 2a69 20be 282d 753c
00000170: 91ee fbbc 0ea5 dd3e 86b4 c43d 02f4 033e
00000180: bac7 3d3e 4792 183f 96fc 79bd 2b3a 49bd
00000190: ae78 0bbe 9362 aa3d fc88 f63c f89c 143e
000001a0: 4e80 bcbd b060 d93d dd02 603d b7dc e93d
000001b0: 1abc b8bd b708 54be fb46 9a3d a607 663e
000001c0: 2c53 093f cca9 6fbe f6fa 58bc 2778 0cbe
000001d0: b54d 01be 040b 04be 716b d8bc 6fbe 91bc
000001e0: 7d77 893e 9c32 2c3e 5a0c 04be 5380 9e3b
000001f0: c395 96bc 9e88 9f3d a6ec 10be 253f 62be
00000200: 7776 913d 466a eebe 6026 1cbe 91c6 9f3e
00000210: 0077 b53e c353 bdbe c5d6 ab3d 6b6a 2bbe
00000220: 4fc7 663e 9ac8 423e 0b88 c73c bb11 3ebf
00000230: 0419 403c 2fcd 50be 6c19 f33e 057c 38be
00000240: 100f f03d b75c 003e 13d1 ae3d 6335 1d3d
00000250: 911d 5cbe 00bf 793b f781 18be 0778 d6bc
00000260: 669e 00bd 5b84 bd3d 525f a5bd 20b7 a1bd
00000270: 4c0d d6be 099b 4fbe 51a8 863e 2f2d a93c
00000280: 932d dcbe 9f22 24be ab6c 4ebd da3e 013d
00000290: 5a26 15be c7da e1bd 6fdf 0ebd 769d d13d
000002a0: f26b f43c f121 653d c241 d23d ac3a 06be
000002b0: cf7e 423e 1906 4dbd d242 d7be 02de 22be
000002c0: ad31 0f3d 279f af3e 826d e6bd 7d41 6fbd
000002d0: d0f5 a2bd a2f9 e2bd 7f9b 1dbe e600 be3c
000002e0: 1ec2 5b3e 6df6 b0bd 441f 65bc bbc6 5bbe
000002f0: 205f 293e c083 1b3f 3720 5abe f27f 2a3e
00000300: 103b bc3d d1f6 19bf fe24 20bc 2840 f43b
00000310: ef38 2fbe 4d70 5a3e 454d 043e e34d b0be
00000320: 51b3 f3bd f969 ad3e 4405 513e fa70 03be
00000330: 1ba0 0b3e 3442 8fbe 4bf5 f73d 8039 00bd
00000340: dfad 413c bc38 a03d c0a6 f63c 42f6 88be
00000350: 6bef 92bd 1000 d53d 9538 ecbd f1ee 063c
00000360: 9458 47be 5c22 233d 4c41 f3be a289 c73e
00000370: 0a3f 2cbe 5de7 be3e 43f0 2ebe 0418 113e
00000380: 1995 b5be 8872 86be 41d3 0f3f bf9d 773d
00000390: a0f3 95be c9ee 4a3e 8a72 8f3b c8b6 2abe
000003a0: faf6 ed3d 3643 1f3e 5050 7bbf 971a b43d
000003b0: aed4 143d 294c 933c d894 293f 304f 1d3f
000003c0: b68c a3bd 1c9d cf3e 3058 373e c92a 2f3d
000003d0: 3cdd bebe d9ef 99be 5e73 eebc 3872 803e
000003e0: 3d5a 883e 6f7b 193c 4cdd 1d3e d972 6ebe
000003f0: 33a2 3bbe 08c5 3abe 6a38 5c3d be97 eb3d
0.13671656 -0.045369603 0.0018367782 -0.071645975 0.18890141 -0.23454319 -0.05501118 0.18625602
0.2168689 -0.22737214 -0.2148354 0.06219424 0.65193826 0.33327463 -0.012228206 -0.2296419
-0.18311702 -0.063431166 -0.09674272 0.110911824 0.07374576 0.2650747 -0.03225466 -0.25441426
-0.04276173 -0.0518211 -0.088728175 0.014039329 0.15912794 0.29235488 -0.1856506 -0.12058982
-0.36163175 -0.027775833 0.24787286 0.09216874 0.09552417 -0.09701158 -0.0575649 0.09967891
-0.2685715 0.05343921 -0.06723055 -0.16603364 0.042990506 -0.18727434 -0.045409095 -0.28048825
-0.31415808 -0.24519002 -0.03179978 -0.04004947 0.0030803464 -0.12539779 -0.05708841 -0.018519068
0.020366777 0.013521922 0.21006879 0.08122159 -0.012106087 0.103738815 -0.033004727 0.0019076052
-0.1327326 0.19314563 -0.39535797 -0.7692348 -0.09759623 0.106762685 -0.18267538 0.12369066
-0.014400811 0.14416172 0.093263194 0.052445278 -0.64534855 0.02297323 0.066795796 -0.20019725
0.11250965 0.23121977 -0.08719126 0.096069366 0.42362067 0.28903374 -0.23799084 0.22301552
-0.11747951 -0.060887657 -0.15665117 0.014964379 -0.030753406 0.4328999 0.096047446 0.1288605
0.18533221 0.595982 -0.0610319 -0.04912774 -0.13620254 0.08319583 0.030094616 0.14513004
-0.0920416 0.10614145 0.05469023 0.11419051 -0.090202525 -0.2070645 0.0753307 0.22463855
0.53642535 -0.23404616 -0.0132434275 -0.1371771 -0.12627299 -0.12894827 -0.02641842 -0.017791001
0.26848975 0.16816181 -0.12895337 0.004837075 -0.018381959 0.077897295 -0.14152774 -0.220944
0.071026735 -0.46565455 -0.15249014 0.31206182 0.35442352 -0.36977968 0.083905734 -0.16739814
0.22536968 0.19021836 0.024356863 -0.74245805 0.011724714 -0.20390771 0.47480333 -0.1801606
0.11721623 0.12535368 0.085359715 0.03838099 -0.21495654 0.003810823 -0.14893328 -0.02618028
-0.03140106 0.092537604 -0.080748215 -0.078962564 -0.4180702 -0.20273985 0.2630029 0.020651428
-0.4300352 -0.16028832 -0.050396603 0.03155408 -0.14565411 -0.110280566 -0.03488105 0.102351114
0.029836629 0.055940572 0.102664486 -0.13108319 0.18993686 -0.050054643 -0.42043167 -0.15905002
0.034959484 0.3430111 -0.11251356 -0.058412064 -0.07957041 -0.1108277 -0.15391348 0.023193788
0.21460769 -0.08640752 -0.013984505 -0.21462528 0.16540194 0.6074791 -0.21301351 0.1665037
0.09190953 -0.60142237 -0.009774445 0.007453937 -0.17111562 0.21331902 0.12920101 -0.34434423
-0.11899436 0.33869913 0.20412165 -0.12836066 0.13635294 -0.27980196 0.12107333 -0.031304836
0.011821239 0.07823321 0.03010881 -0.2675038 -0.071745716 0.104004025 -0.1153423 0.008235679
-0.19467384 0.03982769 -0.47510755 0.38972193 -0.16820922 0.3728589 -0.1708384 0.14169317
-0.35465315 -0.26259255 0.5618172 0.060453173 -0.29287434 0.19817652 0.004377668 -0.16671288
0.11619373 0.15552983 -0.9816942 0.08794134 0.03633564 0.017980652 0.6624274 0.61448956
-0.07985823 0.40549552 0.17904735 0.042765412 -0.37278163 -0.30065802 -0.029107746 0.25087142
0.26631346 0.009367808 0.1541645 -0.23285998 -0.18323593 -0.18239224 0.05376474 0.11503552

mapping.2.bias f4 [12]
00000000: 6a36 73bd c30a 56be 3d97 82bd 94ad c43e
00000010: f168 2abe 6616 3bbf f5cb 93be c7fa 6ebf
00000020: 452b 4ebe cb9b 44be 01f3 eebb 9d65 bcbe
-0.059378065 -0.20902543 -0.06376503 0.3841368 -0.16641594 -0.7308105 -0.28866544 -0.93351406
-0.20133694 -0.19200055 -0.007292152 -0.36796275

mapping.3.weight f4 [12]
00000000: 7559 a73e 6aea c63e 5405 a93e 3007 053f
00000010: 8a63 973e ba9e 4d3e 63ff 1a3e 186f 363e
00000020: 174f 9abe 385d 933e 3833 4c3e 9303 9f3b
0.32685438 0.3885072 0.33011878 0.5196409 0.2956813 0.2008008 0.15136485 0.17815816
-0.30138466 0.28782058 0.19941413 0.004852721

mapping.4.weight f4 [12, 12, 3, 3]
00000000: 94db 073e 6b50 263f a8e3 7abe 5fc9 93bd
00000010: 8683 73bf 5932 36bd 08da ac3e ebd5 83be
00000020: e289 89be 68ad 3ebe 2d28 123d 6544 dcbe
00000030: 2f3e 89be c688 a9bd 8e22 d03d 6da9 333d
00000040: 6733 c53d 783b 093e 741a aabe 8006 2a3f
00000050: 7ea9 81be a150 1ebe 104f 5abf 3097 233f
00000060: 5093 1f3f e5fa cc3e 7b80 bcbe 6746 95bd
00000070: 9504 0abd a51c f13c 7915 073e f97a 9e3e
00000080: b3b5 203d 9a15 bfbe 9c87 1dbe 196c e23d
00000090: f782 b3be c469 5f3f 68c0 f63c 54b3 c33d
000000a0: d65b 7f3f d7b1 c9bd 8c0f b43d 0137 4abf
000000b0: 8628 303e 1aa3 6cbe ef04 92be 3e08 aa3e
000000c0: bc2e 803f 86e0 e6bd 38cf 4dbe 9e96 6dbf
000000d0: 45af 263e f9fd cebe cb84 513e 3440 c83e
000000e0: ab5a 9b3e 35f8 f3be be34 25be 6d62 9b3e
000000f0: 55a7 9e3e 8f78 953e 6fd6 46bf 2bb1 173f
00000100: cc30 003f 890f 96be 395c b73e 6a4a 30bf
00000110: 90e4 cfbe 57a1 4dbd c2ea 01bf 7674 d73e
00000120: b29a 953d 42ad e1be 9855 153d 63fe 593d
00000130: 06b4 e2bc 37ae dc3d edc5 e73d defd a8be
00000140: e7a1 b9be b814 5dbe 3bec 45bd 4d60 32be
00000150: 7458 81be 7aa3 b33e 3856 64be f30c af3e
00000160: e281 60bd 835e 7e3d 12ec b63e 2aa6 7b3e
00000170: 7073 b3bd 2029 60be a420 afbd 40da c0bd
00000180: 1c35 d43c 5c0c 15be 05b7 89be 1fb2 84be
00000190: 6b57 01be 19eb 83be dac2 93be 2ea1 e73c
000001a0: 333f 90be 2e24 42bd 7b63 133e 5b63 883e
000001b0: 690a 3cbe 751e d03e d7ab 2bbf 2a93 a5be
000001c0: 1d2a 093f 811d f03e 6303 c23e 6f0f 0ebf
000001d0: 8345 8e3d 0685 aebd 9916 2e3e cb40 f93d
000001e0: 591b 943c 6cb2 2abf 8e26 c6bd 3307 33be
000001f0: 2114 9b3e ade2 323e 0fee e03d 6c42 bbbc
00000200: 13b5 3b3d b26c 30be d3aa ee3d 75b5 a83d
00000210: 2dbd 0d3d 8c27 f9be 4d3d 5cbe 1590 873e
00000220: 7cc1 dbbd 18ce 02bd 0fae fbbd f701 263d
00000230: 5056 8dbe b908 893d 7f43 db3e de6d 9f3d
00000240: 2609 15bb 7fb4 4bbd 26a4 723c bcbe e93d
00000250: 9532 363f d798 003f 1a48 dfbe 93be 22be
00000260: d796 59bd 5223 8bbe 9fa6 403e b0a7 883e
00000270: ea97 603f 1861 9c3e cc42 9abd 262b 22bf
00000280: 5798 b5be 6714 6dbf 5d09 cd3d 8b6c 9d3e
00000290: ccf2 b33e 9c58 863f bd8b 973d d40b 903e
000002a0: ef2c 1a3e e845 97be 87c4 d43b b861 f5bc
000002b0: 1192 7bbd 6eed 25be 3ba8 373e 246c 45be
000002c0: eb1a 483f 4dd6 45be 99bc 9d3e ed04 1d3d
000002d0: 892f 293c b783 933d 5b16 63bd 5cfe 0fbe
000002e0: c360 60bd 9ab5 17be 60b0 c13c 45a9 09bd
000002f0: fe16 24be 0ada f63d 45de a33b 3dbc 7ebe
00000300: ea86 79bd 3e2d 043e 559b 1abe 1742 15bd
00000310: e95e 8fbd c003 a13e 0df5 f7bd ddb9 db3d
00000320: b73e 8ebd d762 a93e 8e94 ac3d 99d3 a03e
00000330: 7c85 d3bc 659c 233b b9bc 393e 9f9d 593d
00000340: 7d2c e73c a6d6 663d 5fe2 843e d392 f0bd
00000350: be02 8b3e c677 04bf 45e2 86bf 3dd4 babe
00000360: 94f4 1ebe 3238 f03e f45e d0be a6cf bfbe
00000370: f225 203f fc10 9a3e 693d 973a 47d1 8cbe
00000380: ebc0 eebe a910 1bbd a2ae 803e 038b 9bbd
00000390: ff62 b3bd 74a4 15be 415f 183e b3c6 483e
000003a0: e4ed 283d fcb4 93be 9039 9e3e 4755 bebe
000003b0: 743e 813d 064d 90be aae0 163f 3047 193f
000003c0: 8286 1e3d 2ad5 75bf 948d c4be 602c 353e
000003d0: 2d05 f0bd bde6 323e 8040 ebbe 6784 fb3e
000003e0: 580f 82be eb7c b63e c00a 533e 336a b03c
000003f0: e684 eabe 0e98 a33e b9fb 8bbe 8993 0d3f
0.13267356 0.6496646 -0.24500906 -0.07216143 -0.95122564 -0.04448161 0.33760095 -0.25749144
-0.2686301 -0.18620837 0.035682846 -0.4302093 -0.26805255 -0.082780406 0.10162841 0.04386275
0.09628945 0.13401592 -0.33223307 0.6641617 -0.25324625 -0.15460445 -0.8527689 0.6390257
0.62334156 0.40035167 -0.36816773 -0.07288819 -0.033695776 0.029432604 0.13191785 0.30953196
0.039235782 -0.37321168 -0.15383762 0.11055774 -0.35060856 0.8727076 0.030121043 0.095556885
0.99749506 -0.098483734 0.08792028 -0.7899018 0.17202958 -0.23109093 -0.2851939 0.33209413
1.0014262 -0.11273293 -0.20098579 -0.9280795 0.16277798 -0.4042814 0.20460813 0.39111483
0.30342612 -0.47650304 -0.16133401 0.3034853 0.3098704 0.2919354 -0.7767095 0.5925471
0.5007446 -0.29308727 0.35812548 -0.68863547 -0.40604067 -0.050202694 -0.50748837 0.4208104
0.073048964 -0.44077498 0.03645858 0.053221118 -0.027673732 0.10775416 0.11317048 -0.33006185
-0.36256334 -0.21589935 -0.04832099 -0.17419548 -0.25262797 0.3508566 -0.22298515 0.34189567
-0.054811366 0.062101852 0.35726982 0.24575105 -0.08762252 -0.21890688 -0.085511476 -0.09416628
0.02590423 -0.14555496 -0.26897445 -0.25917146 -0.12631004 -0.25765303 -0.28859597 0.028275099
-0.28173217 -0.047397785 0.14393418 0.26638302 -0.18363346 0.40648237 -0.6705908 -0.3233884
0.53579885 0.4689751 0.3789321 -0.554923 0.06946852 -0.08521466 0.17000808 0.121705614
0.018079447 -0.666785 -0.096753225 -0.17483215 0.30288795 0.17469282 0.10982906 -0.02285882
0.045826983 -0.17228964 0.11653676 0.08237735 0.03460424 -0.48662984 -0.2150776 0.26477113
-0.107302636 -0.031934828 -0.122890584 0.040529218 -0.27604914 0.06691117 0.42824933 0.077846274
-0.0022741049 -0.04973268 0.014809644 0.11413333 0.7117093 0.50233215 -0.43609697 -0.15893011
-0.053122368 -0.27175385 0.18813561 0.26690435 0.877318 0.30542827 -0.07532272 -0.6334709
-0.3546779 -0.92609257 0.100115515 0.30746874 0.35146177 1.0495791 0.073997 0.28134024
0.15056203 -0.29545522 0.0064931544 -0.029953822 -0.061418597 -0.16203853 0.17935269 -0.19279534
0.78166074 -0.1932003 0.3080795 0.038334776 0.010326275 0.07202857 -0.05544124 -0.14061874
-0.05477978 -0.14815369 0.023643672 -0.033608694 -0.16024396 0.120533064 0.005000862 -0.24876495
-0.06091968 0.12907884 -0.15098317 -0.03643998 -0.070005246 0.31448174 -0.121072866 0.1072881
-0.06945556 0.3308322 0.08426772 0.31411436 -0.025820486 0.0024965045 0.18138398 0.053128835
0.028219456 0.05635705 0.25953957 -0.117467545 0.2715053 -0.5174526 -1.0537802 -0.3649005
-0.15522987 0.46917874 -0.40697443 -0.3746311 0.625579 0.30091083 0.0011538687 -0.27503416
-0.4663156 -0.037857685 0.25133234 -0.07594874 -0.087591164 -0.14613515 0.14880086 0.19607048
0.041242495 -0.28849018 0.30903292 -0.37174436 0.0631074 -0.28183764 0.5893656 0.5987425
0.038702495 -0.9602839 -0.38389266 0.17692709 -0.11719737 0.17470832 -0.45947647 0.49124452
-0.2540233 0.3564218 0.2060957 0.021535015 -0.45804518 0.31951946 -0.27340487 0.55303246

mapping.4.bias f4 [12]
00000000: 1ccc 50bd fbad 073e bd52 93be 3955 7f3e
00000010: 1b14 28be f693 84be c634 a13e 678e 69be
00000020: c409 59bd cdda 84bd a865 afbe cafd 4cbd
-0.050975904 0.13249962 -0.28774062 0.24934854 -0.1641392 -0.25894135 0.31485575 -0.22808228
-0.05298783 -0.064870454 -0.34257245 -0.05004672

mapping.5.weight f4 [12]
00000000: ee4f 39ba 992a 2d3e 7f5b de3d c3c1 c13e
00000010: 1901 df3d 97c4 0e3e 6bb7 0cbe 1954 de3e
00000020: 804a 083e 54eb d43e bc7e dc3e 254d ed3e
-0.00070691004 0.16910781 0.10857295 0.3784314 0.10888881 0.1394218 -0.13741843 0.43423536
0.1330967 0.4158579 0.4306544 0.4634792

mapping.6.weight f4 [12, 12, 3, 3]
00000000: 8fea eb3d e4c5 23be 00d6 38bd f6d3 6dbd
00000010: 28c4 86be cac4 7abd 9998 213e 349e 1cbd
00000020: 2a90 9c3d 8180 173a 1abe 91bd c336 003d
00000030: d39d cb3e b3c4 b8bd 9184 58be a8a1 50bd
00000040: 179e ff3d d3cb 0abe bd86 fe3c 8cb6 cd3d
00000050: ec8e 5f3d 4be1 c4be 238f 803c 8869 ab3d
00000060: c220 223e b2a5 e7bc bc18 bb3e bf1d 1e3e
00000070: 09b2 643e da95 7ebe 7a71 ab3c 5888 ffbe
00000080: 43c0 463e 9186 a7bc 9336 0bbe 2701 7e3d
00000090: 6518 60bb 547e ff3c ac35 cf3d a05d e83d
000000a0: f844 e83d 15d7 933d 6b44 aabc 67a1 5fbe
000000b0: a908 77b9 af75 bbbd 9699 83be 5aef 56be
000000c0: 0faa 1d3d 5932 e23e cc2c d13e fa60 853d
000000d0: 9de2 5f3e 2bf8 5ebe 3a31 2bbd af7a ad3d
000000e0: bbb9 543c efb9 d83d 986b a0be e605 053a
000000f0: fea4 55be e0e2 41bd dc32 ce3d 31c0 21bd
00000100: cb26 85be baeb 843c 2e17 283d c9ad c4be
00000110: 6abf 043e 79af 0e3e eeaf 813d 4a27 dd3d
00000120: dd11 ab3d f43e 7ebe 92da b2bc 7e5b aebc
00000130: 638f 333f 2b63 8bbd 274b 8b3d 8ec4 1b3e
00000140: c182 a5bd 277a 823e 265d eebe d622 2b3d
00000150: 7e44 2f3d da3d d8be 2db0 8b3e 74d9 af3c
00000160: bf1c b63c ab61 253e aa21 17bd 7ffe 16be
00000170: cf65 88be cc10 e93d ad9b 633d bcb0 d2bd
00000180: 83fc 4fbe 3a5b 893e b2f0 9d3d 0faa 003e
00000190: 310e acbd 3f6b 8cbd d0d4 b33d d612 44bf
000001a0: e1c9 37be 28de 053e 3c46 40be 927d 18bd
000001b0: ca79 353e 6a2d 5d3c 4a1e 483d 8f7c adba
000001c0: e6f2 44be 84ef acbd 2db5 a83d 8935 46bd
000001d0: ef41 853e 4bfb 093e 1405 51be 2878 86bd
000001e0: caa8 b83d d6b6 51bf 313d 9d3e 47aa 873e
000001f0: 0027 7f3b 8665 eebd 5afb 773d 2b59 013d
00000200: e269 443e 1706 d1be 54e3 dcbd 3c5e 593e
00000210: 48d9 c1bb 7217 d8bb b124 0f3d 4393 0d3e
00000220: 0717 32bb e28b d8bd 4d4c a23e 3f45 223d
00000230: 9a48 463e 8192 8fbe dea3 7abd 8532 01bd
00000240: 2eff bf3c a264 20bd 4a8f d6bc d775 1cbe
00000250: ff5e 05bd e5a2 08be f51f 0e3e 99ae 0c3d
00000260: 2685 3f3d 8cb3 89be 620f 1f3e c94d 9c3e
00000270: 7cad 9e3c 8c6d f1be 493c 4bbf c37f 1b3d
00000280: 7ed0 6bbe e59f 65be bdbe c03d e45b 1ebe
00000290: 6de7 443d b4fa 1e3d bb9d 1abe 77b6 5e3c
000002a0: 0bc4 27bd aa99 933d 997c 9b3d ace2 aabd
000002b0: 2835 6d3c cbdf 2c3d 47a1 76bf 542f b23e
000002c0: e14f af3d 7a8c 303b dc5c 443e 6d1a 43bd
000002d0: 703d 8ebd 86fa df3d a674 bb3b 32f6 35be
000002e0: c60c 8c3e 6bfe 953d de4a 58bd 93cd 8a3e
000002f0: 7e89 09be 50de 343e c107 b2bd 3552 02be
00000300: 5f72 0f3f fd45 4dbf 128e a6be 0c36 fc3d
00000310: 6a6e 943e 446c 6ebd 79ae 113e 6c71 bfbc
00000320: 5de2 eabd d86c a43d 309f b7be 20ea 57be
00000330: 5471 3e3e 4453 c93e dd84 ee3d 5c6d 30ba
00000340: 0983 7c3d 9c2f 21bd 8744 e03c d142 29be
00000350: 4077 70be f0ba 8c3d 84b1 3fbf cebc 103e
00000360: aea9 27be 3700 7c3c 53d3 f0bc dfc6 093e
00000370: aad8 41be 1106 b7bd d3ad b3be f72d c6be
00000380: f92f 1f3e 956c c33d c2eb 5abe 88e8 f83c
00000390: a6f9 06be 494b 733e 9944 c83d f2e7 a6be
000003a0: 4236 583f bc55 0fbd bbae f2be 0aa0 203f
000003b0: 428d f0bd 6095 97be 7195 973e f439 273e
000003c0: 602a 563e 0b2b 16be 138e 3e3e f209 743d
000003d0: 3c17 7abd 58d7 32be 99ea 4d3e 0426 9c3e
000003e0: e694 f83e 8678 71be 23ee 32be 7b27 d03d
000003f0: 8c3d c9bd 3ad9 a73b a464 1c3e 5bf8 b33b
0.11519348 -0.15993458 -0.04512596 -0.05806347 -0.2632153 -0.06122283 0.15780868 -0.03823681
0.076446846 0.00057793414 -0.07116337 0.031302225 0.39768848 -0.090218924 -0.2114432 -0.050935417
0.12481325 -0.13554315 0.031070108 0.10044584 0.05457966 -0.38453135 0.015693253 0.08369738
0.15832809 -0.028277252 0.36542308 0.15441035 0.2233354 -0.24861851 0.020928133 -0.4990871
0.1940928 -0.020449908 -0.13595037 0.062012818 -0.0034194228 0.031188168 0.10117659 0.113459826
0.1134128 0.07218758 -0.020784577 -0.21838914 -0.00023558982 -0.09153306 -0.25703114 -0.20989743
0.03849226 0.44179037 0.4085449 0.065126374 0.2186379 -0.21774356 -0.041794993 0.08470666
0.012983735 0.10582339 -0.31332088 0.00050744263 -0.20863721 -0.047335505 0.100682944 -0.03948993
-0.2600616 0.016225684 0.04103773 -0.38413838 0.12963644 0.13934125 0.06332384 0.107985094
0.083530165 -0.24828702 -0.021832738 -0.021283861 0.70140666 -0.06806024 0.068014435 0.15211698
-0.0808158 0.2548382 -0.46555442 0.04178127 0.04278993 -0.4223469 0.2728285 0.021465994
0.022230504 0.16150539 -0.03689734 -0.1474552 -0.26640174 0.11380157 0.055568386 -0.10287616
-0.2031117 0.26827413 0.077119246 0.12564872 -0.08401144 -0.06856393 0.08780825 -0.7659124
-0.17948104 0.13073027 -0.18776792 -0.03722913 0.1772224 0.013499597 0.04885701 -0.0013235974
-0.19233283 -0.084441215 0.082376815 -0.0483909 0.26026866 0.13474767 -0.20412093 -0.06565887
0.09016569 -0.8191961 0.30710748 0.264971 0.0038933158 -0.11640458 0.060542442 0.031579178
0.19181016 -0.4082496 -0.10785547 0.21227354 -0.0059157945 -0.006594592 0.0349471 0.13825707
-0.002717437 -0.105735555 0.31698838 0.03961682 0.19363633 -0.2804146 -0.061191432 -0.03154232
0.023437109 -0.03915847 -0.026191372 -0.15279327 -0.0325613 -0.1334339 0.13879378 0.034346197
0.04675784 -0.26894796 0.15533212 0.30528095 0.019369833 -0.4715389 -0.7938886 0.03796364
-0.23028752 -0.22424276 0.094113804 -0.15464741 0.048072267 0.038813308 -0.15099232 0.013593308
-0.040958446 0.072070435 0.075921245 -0.083440155 0.0144780055 0.042205613 -0.9633984 0.34801733
0.085601576 0.00269392 0.19176048 -0.047632623 -0.06945312 0.109364554 0.0057206927 -0.17769697
0.27353495 0.07323917 -0.052805774 0.27109966 -0.13431355 0.1766293 -0.08692885 -0.12726672
0.5603389 -0.8018492 -0.32530266 0.12314996 0.2899049 -0.05820872 0.14226712 -0.023369513
-0.114689566 0.08028573 -0.35863638 -0.21085405 0.18597919 0.3932134 0.116464354 -0.0006730163
0.061648402 -0.039352044 0.027376426 -0.16529395 -0.2348299 0.06871593 -0.7488024 0.14134523
-0.16373321 0.015380911 -0.029397642 0.1345477 -0.18930307 -0.08936704 -0.35093555 -0.38706943
0.15545644 0.09542195 -0.21378997 0.030384317 -0.13181171 0.23759188 0.09778709 -0.32598835
0.8445779 -0.034993872 -0.47398934 0.627442 -0.11745693 -0.29606152 0.29606202 0.16330701
0.20914602 -0.14664857 0.18608885 0.059579797 -0.061057314 -0.1746496 0.20109023 0.30497754
0.485511 -0.23581132 -0.17473654 0.1016378 -0.09826192 0.005122331 0.15272766 0.0054922528

mapping.6.bias f4 [12]
00000000: 2f79 aabe aa52 75be efa3 aabe 5291 9a3d
00000010: b92e 09bf a37e b33c 56a2 183e 04b2 98be
00000020: 5682 a03e 436f 08bf bd1e f13c b127 4dbe
-0.3329558 -0.23957315 -0.33328196 0.07547249 -0.5358692 0.021910971 0.14905676 -0.29823315
0.31349438 -0.5329477 0.029433602 -0.20034672

mapping.7.weight f4 [12]
00000000: b759 973e 7a95 c83e 1033 ab3e 4d87 4f3b
00000010: 50a6 ad3e 2246 2d3e 2330 bd3e 40bc ee3c
00000020: 14c0 10bd 0c93 a23e 3fd9 4b3f f55b 5d3e
0.29560634 0.39176542 0.33437395 0.003166634 0.3391595 0.16921285 0.36950788 0.029142499
-0.03533943 0.31752813 0.79628366 0.2161711

expanding.0.weight f4 [56, 12, 1, 1]
00000000: 766f 1a3e c66c f23d 81fd e73e c26c 8f3e
00000010: 1f35 b7bf 69f5 a93d e957 b0be b109 fbbf
00000020: 68cc 9ebe 1d2b b23f c428 96bd 3a56 db3d
00000030: 5d83 2d3e 4d7a 9b3e 9f8a 2cbf 805b 163e
00000040: 9bdb e2bc 9387 503d a72f 81be deec 183d
00000050: 82ff d63d 302c 283e 52d5 ed3c b686 babd
00000060: 1ea0 8b3e 6866 173f 4586 45bb e4cd 3b3d
00000070: 03bb 1a3e 64ae 8dbe 6359 07bf a692 bb3d
00000080: baee e83d 12e4 22bf 7f48 a1bc e749 dabd
00000090: 56b2 8e3e 5a68 f73e 3a54 203c c136 b43c
000000a0: 3790 2f3e f80b 8bbe c580 d0be 06cc 683d
000000b0: 171a f43d 3b08 28bf f64d d6bc 0dba a2bd
000000c0: 40ab 083e f1d7 0d3d 9796 b13d f68b af3e
000000d0: e718 f5be 64ea 61bf 4f8c 803e e504 69be
000000e0: 319e 0ec0 1713 d33f 9f7b 71be eb26 473e
000000f0: 11fc a7be 7853 f33e 75dc 0f3f 3a34 ccbe
00000100: 3371 03bf 35ad 87be c4bd 09bf 05ec cfbc
00000110: 6a6e c8be 03ae 863f 9bd5 043f ff64 b43e
00000120: 0ad8 07bd 4b18 c5bc 4e0e 583d 62b3 1e3e
00000130: 6250 abbc a67a 9fbc fc45 b33c 2a65 aa3d
00000140: 8025 78bc 7699 b13d 4b9a db3a 705c 223d
00000150: c73f fb3e c5fd 47be 5ff3 4abe 6c11 133e
00000160: 9ff8 bd3c 3f87 2ebe dd1e 543d 7a07 85be
00000170: 62f4 90bf ba7d 62be 67ef 833e 35f4 8b3e
00000180: 3d53 b3bf 8ce5 bc3d a84b a03e 3d58 fdbd
00000190: 6ecc e33d 04ed f9be ee73 3dbf 6c43 94be
000001a0: b49d f5bc 10c7 3e3f 38a9 c1be 4a08 c13c
000001b0: 5e74 093e e65d febe 42cf 60bd 84d0 963d
000001c0: bf91 513e 213c 28be 9895 63be 0ad2 e0be
000001d0: cf4d b1be 1192 f33e b50a 68bd d0a0 0f3f
000001e0: 0233 c03e 2c6f 713c 4f34 e23d dc6c 87bd
000001f0: e3f2 383c fdd3 0d3c d5be d13d 5fee c0bc
00000200: 1e04 54bd b0fa 0f3f cbcb 72bd 2d72 4d3d
00000210: 2f0b d53e ae00 90be 0863 34bd 9606 fe3e
00000220: 0f30 b5bd 59cd 14bf 698c 553e 1f66 22be
00000230: e343 0bbd d41f 2740 f335 95be 8a21 82bf
00000240: b600 33bf 87ad 733e a49d 3d3f b05a 233d
00000250: 467d 2bbe 8a9d 18c0 bcd4 34bc b45f 14be
00000260: 3a68 40be 9e92 853d c08e 423e 0dea d63e
00000270: d8fa 8ebe 4eac 863e 6586 363f f491 3f3c
00000280: 5bf3 b53e 21dc a73c 91af 333b b455 22be
00000290: cef9 eebd 2b5a 2f3e 1d0e fcbd 37b9 e33e
000002a0: 1e28 0cbf 376a ab3e 2fd3 26bd 21eb 0bbe
000002b0: 4f85 c73d b6b3 013d 0fd8 43bd 88bd 2dbe
000002c0: b1c2 3bbe 7b8b c63c 5b1c f8bc ef8f 123e
000002d0: 70af 26bc 0e3a 7a3e 7aa8 2fbc c47f 943b
000002e0: 919b c8bd 4a97 12bd 3e5d 493e 590c 9abd
000002f0: 4b16 eb3d 34a6 863e 1922 08be b68e ce3d
00000300: a26a a6be 712d 0d3f 7661 5d3e 5d5a 833e
00000310: b648 96bf 2385 97be 43ca b9bd c156 1cbf
00000320: 7acf 513c 4e5d 7e3e 408c babe ec34 8f3f
00000330: ccaa 753e 41fc 10bf 5169 c5bd 07bd 8a3b
00000340: 8cfa cb3d 082d d4bd dce8 cdbd 1690 f3bd
00000350: bf98 9bbe 7df6 fd3e 89f9 023f 70d4 a3be
00000360: 7c5c f1be d0f8 27bf 5754 e93e ebda e1bc
00000370: 428e a6bf 8fea 323e 1f04 bcbe b14b bcbf
00000380: b418 e0be 0bfb 0f3f 7cea 02be 298e 00bf
00000390: 623a dcbe 67d1 cf3e db48 49bc 5329 4f3f
000003a0: e50a 353e 38ef fbbe de9d 5cbd 4d3e 4b3e
000003b0: 95b5 aabe 3f1e 6d3e feab 0dbe 968b 9a3e
000003c0: 8416 9b3e 8edc 03bf 7f36 b13c a3ae f53d
000003d0: f47e d0bd 0d0b 9e3d 6f20 3ebe f3e5 6c3e
000003e0: 35b6 0fbf 7c3e 8d3f 99bd 163d e193 64be
000003f0: 2232 a53d 492a 81be 0b95 8a3f 242c 1abf
0.15081581 0.11837153 0.45310596 0.28012663 -1.4313086 0.082987614 -0.3444207 -1.9612333
-0.31015325 1.3919407 -0.07331994 0.10709806 0.16944642 0.30366746 -0.6739902 0.14683342
-0.027692607 0.050910544 -0.25231668 0.03733527 0.10497953 0.16423106 0.029032383 -0.09107725
0.27270597 0.59140635 -0.0030139845 0.04585065 0.15110402 -0.27672112 -0.5287077 0.0915883
0.113736585 -0.6362926 -0.01968789 -0.10658627 0.27870435 0.483218 0.009785706 0.021998765
0.17144857 -0.2715757 -0.40723243 0.056835197 0.11919039 -0.6563756 -0.026160222 -0.079456426
0.13346577 0.034629766 0.08671301 0.3428647 -0.4787056 -0.88248277 0.25107047 -0.22755773
-2.2284052 1.6490201 -0.23582314 0.1944844 -0.328095 0.4752462 0.56195766 -0.39883596
-0.51344603 -0.26499334 -0.53805184 -0.025381098 -0.3914674 1.0521854 0.51888436 0.35233304
-0.033165015 -0.024059435 0.052748017 0.15498117 -0.020912353 -0.019467663 0.021883957 0.08320077
-0.015145659 0.086718485 0.0016754357 0.039638937 0.49072096 -0.19530399 -0.19819401 0.14362115
0.02318984 -0.1704378 0.051787246 -0.25982267 -1.132458 -0.22118273 0.25768587 0.27334753
-1.4009777 0.0922347 0.3130772 -0.12370346 0.11122976 -0.4881364 -0.7400502 -0.2895769
-0.029982425 0.74522495 -0.37824416 0.023563523 0.13423297 -0.49681014 -0.054885156 0.0736399
0.20465754 -0.16429187 -0.22225034 -0.43910247 -0.34629676 0.47572377 -0.056650836 0.56104755
0.37538916 0.014735978 0.11045133 -0.0661256 0.011288377 0.008656499 0.102414764 -0.023551164
-0.05176174 0.56241894 -0.059276383 0.050157715 0.41610095 -0.2812552 -0.044039756 0.496144
-0.08847057 -0.58125836 0.20854343 -0.15859269 -0.03400029 2.6113176 -0.29142722 -1.0166485
-0.6992296 0.23796664 0.74068666 0.03988141 -0.16747007 -2.3846154 -0.011037048 -0.14489633
-0.1878976 0.06522106 0.18999767 0.41975442 -0.27925754 0.26303333 0.7129882 0.011692513
0.35537228 0.020490708 0.0027417878 -0.15853006 -0.1166874 0.1712424 -0.123073794 0.44477245
-0.54748714 0.33479473 -0.040728744 -0.13663913 0.097422235 0.031665526 -0.04781347 -0.16966832
-0.18335988 0.024236431 -0.030286958 0.14312719 -0.0101736635 0.24436209 -0.01072132 0.0045318324
-0.09795297 -0.03578881 0.19664475 -0.075218864 0.114788614 0.26298678 -0.13294257 0.10085814
-0.3250323 0.55147463 0.2161921 0.2565488 -1.174094 -0.29593763 -0.090717815 -0.61069876
0.012805814 0.2484028 -0.36435127 1.1188025 0.23990935 -0.5663491 -0.09639228 0.0042339596
0.099598974 -0.103601515 -0.1005418 -0.118927166 -0.30389974 0.49602118 0.5116201 -0.31998014
-0.47140872 -0.6561403 0.4557216 -0.027570209 -1.3012164 0.1747229 -0.36721894 -1.4710599
-0.43768847 0.56242436 -0.12784761 -0.5021692 -0.43013293 0.4058945 -0.0122854365 0.8092243
0.17679937 -0.49205947 -0.05386149 0.19847985 -0.3334166 0.23156069 -0.13835141 0.3018462
0.30290616 -0.51508415 0.021632431 0.119962 -0.101804644 0.077169515 -0.1856706 0.23134594
-0.561374 1.1034694 0.03680191 -0.22322036 0.08066203 -0.25227574 1.0826734 -0.60223603

expanding.0.bias f4 [56]
00000000: 928c 15be 69f4 32be 314a ca3c b308 5e3c
00000010: 6f06 a4bd 72cf 133e dd01 a23d 6797 81be
00000020: 5b24 2d3e fd38 8bbc 3f23 b13e f70c fe3b
00000030: 467a 4bbe a372 243c 066d f73c 0d6e 9cbc
00000040: b8e8 c7be 0b09 b03c c3cc 6cbe f530 07be
00000050: 8b2f a93d da59 2b3e 3e09 4a3d 2ebc 98be
00000060: 0c64 093e 513e 41be 04dc 56be 8ace 4b3b
00000070: 4497 313c f630 aabe 24e8 73be dc41 1a3d
00000080: 33dc 9bbe 1a0a d43d 7b67 6bbc a727 03be
00000090: 55f4 92be 9842 c2bd 2fb9 59be 885c 0ebf
000000a0: 83ab 463e e220 f23d 0ee5 16be 9ebe 95be
000000b0: a051 28be 63bf 2e3d 60e9 80bd a2c6 2abc
000000c0: 2743 ce3d d01c a2bd da93 383c acc7 e6bd
000000d0: 9ec1 013e 895a 9c3d 4719 cebd 09b0 153d
-0.14604405 -0.17476048 0.02469358 0.013551879 -0.080090396 0.14434603 0.07910512 -0.25310823
0.169084 -0.016994948 0.34597203 0.0077530104 -0.19870862 0.010037097 0.030203354 -0.019095445
-0.39044738 0.021488687 -0.23124985 -0.1320227 0.08261021 0.16733494 0.04932522 -0.2983107
0.13417071 -0.18871428 -0.20982367 0.0031098449 0.010839287 -0.3324048 -0.23819023 0.037660465
-0.30441436 0.10353489 -0.014367933 -0.12808095 -0.28702036 -0.09485358 -0.21262048 -0.5560994
0.19401364 0.11822678 -0.14735815 -0.29246992 -0.16437387 0.04266299 -0.06294513 -0.010423334
0.10071402 -0.07915652 0.011265719 -0.11268553 0.12671515 0.07634456 -0.10063415 0.036544833
